model_ddqn.pkl (torch, 805794 bytes, 12 tensors)

net.0.weight f4 [256, 6]
0.040063392 2.2493966 -2.2209277 -12.350261 -0.2978671 7.924214 -0.16674861 -0.34822038
2.8487144 -14.031655 0.5364521 8.677513 0.09687547 -1.1869897 -5.9501305 22.854794
0.046734255 -2.1487443 -0.1905866 0.104061805 -0.18809494 -0.047876444 -0.16581345 0.27082008
-0.32225904 -0.18820669 -0.11527901 -0.24546847 0.03853175 -0.40321833 0.0008421567 -1.752831
-2.541827 8.802316 0.40938172 6.6682587 0.007766797 0.47045043 -0.21070501 -3.4974508
-0.061616153 -12.417013 0.065905124 -0.28450736 2.456191 6.1593623 0.14644635 7.8437734
0.051146492 -1.0814736 -2.162332 1.9865164 0.13371651 7.7281976 0.016058298 -0.054771367
0.6821035 -1.8770126 0.04718989 -14.94841 0.011464442 -0.26614413 1.3393054 -0.9995723
0.09462649 -16.078379 0.0015637641 -0.8021424 -6.67189 12.825508 0.4554536 7.470749
0.0544805 -9.024153 -0.29999495 -7.294135 -2.1104696 4.5543833 0.009242523 0.4834356
0.36698785 6.662894 0.20500815 8.608907 -0.11170914 0.23124623 0.036036965 0.50441444
0.11620126 7.437233 0.07500428 -0.28397295 12.322133 5.533902 -1.4472885 -6.047207
0.25523975 -0.45873865 -1.2835387 9.854177 -0.15748182 7.5557113 -0.05388599 -0.29634172
0.009576155 -0.27886686 -0.3463565 -0.22480708 -0.38906956 -0.29171294 0.37633306 0.04534213
0.094039895 -0.41253245 -0.2681268 -0.13588783 0.06383824 -0.35922638 -0.17590319 -0.24440543
-0.0040056114 -0.9673986 1.4922866 -0.72560745 -0.7376958 -4.7236876 -0.13646194 -0.26249295
-0.24219841 5.394463 0.718567 -0.61935097 -0.34570342 0.2825222 -0.112327404 -0.15649222
-0.33887488 -0.4058644 0.0174034 -0.90471447 1.1567391 6.263743 0.34633252 8.214399
-0.07519993 0.074994 -2.0329208 0.018300105 0.35688102 -0.59063625 0.018087197 -0.47845232
-0.52007717 -0.38607776 0.2499722 -13.4018545 0.20135674 -0.03997286 -0.4391871 9.65542
0.47822922 8.38 0.03603762 -1.2978683 4.9037037 6.6105213 0.22760321 -8.279219
0.061255492 -0.7327902 -0.9829334 9.204469 0.4157466 8.490555 -0.5557276 -0.50975496
2.8947947 1.0978675 0.12367011 1.2117357 0.0045357617 0.4445795 -23.99312 -16.417831
-0.08423369 -1.7950366 0.028973252 -2.2410362 -4.6994996 -2.0922084 0.35603905 -8.567548
0.034970082 0.7381627 -1.5487307 -7.524525 -0.14549883 -7.8116975 0.083989605 0.11946567
-1.8701713 10.244249 0.50840485 8.481902 -0.052071087 -0.27790096 -0.2815341 -0.39746097
-0.16483946 0.106101364 -0.032515153 0.2674915 -0.19337274 -3.145669 -0.11704399 -0.023834456
0.06501681 -0.54944676 3.9435441 4.3819046 -0.50310695 -8.19655 -0.26714766 -3.6957414
2.190268 -5.959649 0.18516983 3.736637 -0.6221475 -1.0564598 -3.6731436 -14.600814
0.3466496 4.2544503 0.08110708 -13.21895 1.513427 -10.307816 -6.1554275 5.0092564
-0.0006712639 -1.1198189 -1.5337166 7.740625 0.31734115 6.9916706 -0.26675585 0.13542038
-0.12132992 0.2520293 -0.13096963 -0.29947758 0.0088624 -0.38369247 -10.65624 -10.182566
00000000: 8319 243d 1df6 0f40 ae23 0ec0 ab9a 45c1
00000010: 0982 98be 2993 fd40 26c0 2abe f149 b2be
00000020: 5651 3640 a981 60c1 ed54 093f 18d7 0a41
00000030: a566 c63d 47ef 97bf 7867 bec0 9ed6 b641
00000040: 6b6c 3f3d 0785 09c0 2229 43be 5b1e d53d
00000050: f69b 40be 171a 44bd 00cb 29be eea8 8a3e
00000060: 23ff a4be 41b9 40be 6717 ecbd 165c 7bbe
00000070: 78d3 1d3d a272 cebe 2ec4 5c3a c45c e0bf
00000080: 4bad 22c0 49d6 0c41 7b9a d13e 6062 d540
00000090: 9e80 fe3b e1de f03e 0ec3 57be 3cd6 5fc0
000000a0: 3861 7cbd 16ac 46c1 44f9 863d f3aa 91be
000000b0: 3c32 1d40 7f19 c540 08f6 153e 3100 fb40
000000c0: fc7e 513d ba6d 8abf a663 0ac0 2b46 fe3f
000000d0: fbec 083e 654d f740 b18c 833c f157 60bd
000000e0: 569e 2e3f f341 f0bf 304a 413d b02c 6fc1
000000f0: 5bd5 3b3c 0b44 88be 5c6e ab3f f8e3 7fbf
00000100: 88cb c13d 85a0 80c1 37f7 cc3a 3459 4dbf
00000110: 1f80 d5c0 4835 4d41 3731 e93e 6010 ef40
00000120: f226 5f3d ee62 10c1 f098 99be 8e69 e9c0
00000130: ef11 07c0 82bd 9140 f46d 173c df84 f73e
00000140: d5e5 bb3e 6d36 d540 a8ed 513e 15be 0941
00000150: c3c7 e4bd d0cb 6c3e 7f9b 133d 4e21 013f
00000160: edfa ed3d d0fd ed40 d89b 993d e764 91be
00000170: 7527 4541 ba15 b140 c040 b9bf b882 c1c0
00000180: c9ae 823e cbdf eabe ff4a a4bf b6aa 1d41
00000190: ea42 21be 63c8 f140 8eb7 5cbd 1aba 97be
000001a0: 4ee5 1c3c a3c7 8ebe a455 b1be d433 66be
000001b0: 2034 c7be 665b 95be baae c03e abb8 393d
000001c0: fd97 c03d 7437 d3be ea47 89be 2e26 0bbe
000001d0: a0bd 823d 85ec b7be f71f 34be 6b45 7abe
000001e0: 8141 83bb 6fa7 77bf 3f03 bf3f 69c1 39bf
000001f0: a2d9 3cbf 7328 97c0 aebc 0bbe 7a65 86be
00000200: dc02 78be 719f ac40 02f4 373f c98d 1ebf
00000210: 0a00 b1be c0a6 903e e90b e6bd 7f3f 20be
00000220: 0281 adbe 75cd cfbe 9391 8e3c 5e9b 67bf
00000230: 0710 943f 9570 c840 7f52 b13e 2e6e 0341
00000240: 6c02 9abd 7496 993d 601b 02c0 1aea 953c
00000250: 1cb9 b63e f033 17bf 9a2b 943c b4f7 f4be
00000260: c723 05bf fcab c5be b6f8 7f3e ff6d 56c1
00000270: 7630 4e3e 95ba 23bd 22dd e0be 9a7c 1a41
00000280: 76da f43e 7b14 0641 2f9c 133d 8c20 a6bf
00000290: 24eb 9c40 6489 d340 d110 693e ae77 04c1
000002a0: 0ae7 7a3d 2398 3bbf 86a1 7bbf 8145 1341
000002b0: bddc d43e 50d9 0741 2a44 0ebf 4d7f 02bf
000002c0: 5144 3940 ec86 8c3f c146 fd3d 281a 9b3f
000002d0: baa0 943b ed9f e33e e9f1 bfc1 b857 83c1
000002e0: b682 acbd c2c3 e5bf 5059 ed3c 236d 0fc0
000002f0: 4d62 96c0 bee6 05c0 c04a b63e ad14 09c1
00000300: ca3c 0f3d 3bf8 3c3f cf3c c6bf e9c8 f0c0
00000310: a5fd 14be 6df9 f9c0 be02 ac3d 6baa f43d
00000320: c661 efbf 72e8 2341 d226 023f dfb5 0741
00000330: 7e48 55bd 0949 8ebe 3d25 90be 0180 cbbe
00000340: adcb 28be ac4b d93d 9c2e 05bd a5f4 883e
00000350: 8103 46be a452 49c0 c2b4 efbd 7a40 c3bc
00000360: 8927 853d 8ba8 0cbf 0763 7c40 9038 8c40
00000370: 9ecb 00bf 1225 03c1 94c7 88be 0787 6cc0
00000380: 5a2d 0c40 72b5 bec0 299d 3d3e 1025 6f40
00000390: 0f45 1fbf 133a 87bf c914 6bc0 ef9c 69c1
000003a0: 0e7c b13e 7524 8840 781b a63d d280 53c1
000003b0: fab7 c13f d0ec 24c1 43f9 c4c0 d44b a040
000003c0: c2f7 2fba 3a56 8fbf d350 c4bf 33b3 f740
000003d0: 8a7a a23e c4bb df40 3994 88be a4ab 0a3e
000003e0: d27b f8bd fc09 813e e71c 06be 2055 99be
000003f0: 9a33 113c 5773 c4be f67f 2ac1 caeb 22c1

net.0.bias f4 [256]
-9.345473 5.914322 -8.937072 -0.13127103 -0.14556034 32.056313 -36.189537 39.1431
36.661995 -32.724373 -30.250921 14.398311 30.04454 31.930946 24.52188 22.289303
24.013508 0.1571953 0.29210594 0.08310823 -1.3246133 7.441818 -0.29900542 38.650253
3.6225407 -23.16853 30.271128 11.763112 32.465225 0.9644779 -35.813778 -30.946491
-40.329712 25.127024 0.019954955 1.6793982 -14.844235 0.45963022 -0.34054127 31.392273
36.52741 0.17144918 -17.770538 30.35457 -37.738308 -22.731693 -0.34714377 10.810546
41.752434 35.631023 14.587005 3.4754884 0.26112434 9.526098 -0.19292086 0.62205875
0.09984184 1.4794753 0.58218396 -0.24484017 0.40705582 29.50557 -0.3224141 40.35536
33.787292 0.8380862 -0.36742833 30.5873 2.2058873 -9.808655 -37.79874 -39.25299
0.06324008 0.19463876 13.29731 -0.012152906 -6.416212 -27.219942 -42.65116 -0.29747707
-19.51224 36.656548 32.345367 -0.12936148 -44.807747 45.31267 28.431496 -37.624073
34.366627 29.189268 0.84473 -42.17982 -9.591319 -36.087204 0.26335567 -0.57999754
-9.903406 -33.37137 -37.11568 0.726532 -0.39275235 0.41678706 0.31235108 0.104862615
-0.006876656 0.14224426 -0.28830227 -38.710354 -47.032597 -31.364536 -0.7431659 39.867245
-10.940749 -0.3587329 -0.013850528 14.975155 -40.048424 -0.6814645 -0.089555465 -41.24879
0.24520849 37.37756 0.21865183 -28.190807 -0.0009510503 -29.322914 0.2585196 0.94130355
-0.35975018 0.37101173 -36.896225 -39.57134 -14.521002 -0.10499363 -36.13085 0.3979434
24.779785 0.17771515 -39.81403 -0.39869633 32.360302 -30.898806 -0.2437518 26.481913
-0.4890209 -0.043861758 34.287872 -33.41694 0.06303845 -48.80423 2.537495 0.0009643851
25.78985 0.13894713 35.94659 39.072723 0.2853783 0.39016122 -0.20702644 33.18742
0.05055994 35.28518 38.27193 28.281464 -0.6456091 -37.982937 7.2626777 -0.19762447
0.1925559 29.314194 -0.39014086 39.343155 -0.54743713 33.40023 0.21904023 36.398743
1.7409571 -41.99706 -33.416862 -0.27712548 0.081102125 -33.446815 0.26243192 22.232244
0.028633954 0.24425933 -0.3740032 -30.664272 27.007381 1.4304878 -31.763996 -0.27882138
32.357056 -1.1078362 -0.18948954 -37.078186 -33.70452 -0.11164894 22.006613 0.079100944
0.09562849 38.698963 25.907322 34.825638 2.574618 -11.00507 -0.15461576 7.7501698
0.2971091 -0.36944613 -26.795933 0.011141682 3.5315466 -33.528305 -0.8154792 -1.7281296
-0.17237064 -36.44569 -32.295494 -23.630732 0.3564604 -15.57756 13.685497 -27.500923
-10.379101 -37.11657 -0.40453902 -0.07346934 -24.105665 30.598248 38.05226 0.28858164
35.340725 0.22661084 0.16936745 -0.2532092 -0.56607896 0.01692341 1.2699684 0.022986734
-0.03511338 24.829391 -15.5186 -15.11082 0.7556401 -37.02415 -0.39241543 -0.8404896
0.029625835 -0.92804456 -3.902113 26.698591 19.133942 38.580288 34.995327 21.58686
00000000: 0f87 15c1 2042 bd40 3ffe 0ec1 ea6b 06be
00000010: c50d 15be aa39 0042 16c2 10c2 8992 1c42
00000020: e2a5 1242 c2e5 02c2 e301 f2c1 7b5f 6641
00000030: 385b f041 9472 ff41 cf2c c441 7e50 b241
00000040: aa1b c041 cef7 203e e98e 953e a634 aa3d
00000050: ee8c a9bf 6023 ee40 3d17 99be dc99 1a42
00000060: b5d7 6740 2659 b9c1 452b f241 b535 3c41
00000070: 64dc 0142 06e8 763f 4f41 0fc2 6a92 f7c1
00000080: a051 21c2 2504 c941 9378 a33c 85f6 d63f
00000090: fd81 6dc1 a754 eb3e 6d5b aebe 6023 fb41
000000a0: 111c 1242 6090 2f3e 102a 8ec1 29d6 f241
000000b0: 07f4 16c2 82da b5c1 d4bc b1be fff7 2c41
000000c0: 7e02 2742 2b86 0e42 5f64 6941 676e 5e40
000000d0: 17b2 853e e66a 1841 0c8d 45be 3e3f 1f3f
000000e0: e179 cc3d 725f bd3f 020a 153f 62b7 7abe
000000f0: 9f69 d03e 680b ec41 7613 a5be e36b 2142
00000100: 3026 0742 d18c 563f 911f bcbe cab2 f441
00000110: 422d 0d40 40f0 1cc1 e931 17c2 1003 1dc2
00000120: 0484 813d 624f 473e c8c1 5441 fb1c 47bc
00000130: 9c51 cdc0 71c2 d9c1 ca9a 2ac2 ea4e 98be
00000140: 1119 9cc1 4ea0 1242 a861 0142 5677 04be
00000150: 223b 33c2 2d40 3542 b473 e341 0d7f 16c2
00000160: 6d77 0942 9f83 e941 3a40 583f 23b8 28c2
00000170: 0b76 19c1 4c59 10c2 8ed6 863e b87a 14bf
00000180: 5a74 1ec1 487c 05c2 7576 14c2 00fe 393f
00000190: d616 c9be 1d65 d53e 7bec 9f3e 36c2 d63d
000001a0: 9255 e1bb 7ba8 113e 5b9c 93be 67d7 1ac2
000001b0: 6121 3cc2 92ea fac1 1f40 3ebf 0f78 1f42
000001c0: 4f0d 2fc1 d7ab b7be 53ed 62bc 3c9a 6f41
000001d0: 9631 20c2 7574 2ebf db68 b7bd c3fe 24c2
000001e0: ef17 7b3e 9f82 1542 44e6 5f3e c686 e1c1
000001f0: e84f 79ba 5495 eac1 ae5c 843e 45f9 703f
00000200: 2d31 b8be 40f5 bd3e bc95 13c2 0d49 1ec2
00000210: 0656 68c1 e606 d7bd fe85 10c2 3dbf cb3e
00000220: 003d c641 f6fa 353e 9141 1fc2 ed21 ccbe
00000230: f370 0142 c130 f7c1 129a 79be f5da d341
00000240: f360 fabe 63a8 33bd c826 0942 f2aa 05c2
00000250: 4e1a 813d 8837 43c2 5166 2240 cace 7c3a
00000260: 9d51 ce41 2848 0e3e 4fc9 0f42 784a 1c42
00000270: 1b1d 923e 36c3 c73e bdfe 53be ebbf 0442
00000280: f117 4f3d 0624 0d42 7516 1942 7040 e241
00000290: a346 25bf 87ee 17c2 db67 e840 125e 4abe
000002a0: 602d 453e 7883 ea41 8bc0 c7be 645f 1d42
000002b0: d724 0cbf d699 0542 154c 603e 5098 1142
000002c0: afd7 de3f fdfc 27c2 deaa 05c2 64e3 8dbe
000002d0: df18 a63d 8ac9 05c2 7a5d 863e a3db b141
000002e0: c191 ea3c 1e1f 7a3e 597d bfbe 6e50 f5c1
000002f0: 1e0f d841 391a b73f aa1c fec1 adc1 8ebe
00000300: a06d 0142 94cd 8dbf 8c09 42be 1050 14c2
00000310: 6ed1 06c2 33a8 e4bd 8b0d b041 adff a13d
00000320: dfd8 c33d bdcb 1a42 3242 cf41 744d 0b42
00000330: 8bc6 2440 c414 30c1 9853 1ebe 6401 f840
00000340: af1e 983e 0b28 bdbe 125e d6c1 9a8b 363c
00000350: dc04 6240 fc1c 06c2 3fc3 50bf 5a33 ddbf
00000360: ee81 30be 63c8 11c2 962e 01c2 bd0b bdc1
00000370: fa81 b63e b03d 79c1 ccf7 5a41 e401 dcc1
00000380: cc10 26c1 5e77 14c2 bd1f cfbe 1877 96bd
00000390: 67d8 c0c1 36c9 f441 8435 1842 f9c0 933e
000003a0: e75c 0d42 ac0c 683e a96e 2d3e a3a4 81be
000003b0: 8dea 10bf f7a2 8a3c 538e a23f ad4e bc3c
000003c0: 0cd3 0fbd 98a2 c641 304c 78c1 ebc5 71c1
000003d0: a171 413f bb18 14c2 adea c8be 542a 57bf
000003e0: e1b1 f23c 5494 6dbf 38bc 79c0 b796 d541
000003f0: 5012 9941 3752 1a42 37fb 0b42 e4b1 ac41

net.2.weight f4 [256, 256]
-0.06441374 0.022939496 -0.010559263 -0.030899398 -0.021438554 -0.0588343 0.0121253235 -0.050633203
-0.04424053 -0.084120415 -0.00036851337 -0.04631298 -0.019528378 -0.053256 -0.041418348 0.011118144
0.037209917 -0.03622376 0.0029945448 -0.04753208 -0.029306069 0.022368984 0.0006553158 0.023354836
-0.045908984 -0.07064116 -0.07441774 0.055394664 -0.08491217 0.0028893093 -0.021193465 0.008388794
-0.0033211939 -0.05289097 0.038672723 -0.057582114 -0.021990083 0.015012928 0.015455386 -0.01920572
-0.025177632 -0.03816341 0.0038558797 -0.03919108 -0.009910301 -0.022433061 0.04612177 -0.03188646
-0.030954381 0.033144604 0.03529828 -0.063444056 -0.09161379 -0.023108725 0.032868378 0.008897529
0.044332147 -0.08023775 0.0017518353 -0.038854957 0.03788968 0.009887818 0.019794755 0.043610457
-0.07695182 -0.053650722 -0.060094073 0.039239466 -0.009738323 -0.05534584 -0.005349121 0.024049094
-0.061630227 0.045338817 -0.028359078 -0.025316786 0.020254593 0.05143797 -0.011343444 0.04938343
0.014727537 -0.02799078 -0.092045546 0.01167392 -0.052539498 0.019241638 0.0021173826 -0.033855505
-0.08344778 -0.047769286 0.015863406 0.022541245 0.0009147687 -0.05673953 -0.010762267 -0.045672692
0.00992832 -0.031588238 0.03936655 0.013882239 -0.05715975 0.0037936172 -0.012229956 -0.034551397
0.026982345 -0.007593438 0.05471926 -0.07732661 -0.006020919 -0.060996175 -0.06538353 -0.004447689
0.04141962 0.03291995 -0.05131784 -0.03047716 -0.07449899 0.002801813 -0.08299034 -0.026629876
0.042866655 -0.094654575 -0.059588917 -0.026303058 0.008567773 -0.048061855 0.054575756 -0.040563084
-0.037942514 -0.048468735 -0.011632659 -0.026857685 0.027438814 -0.0035093129 -0.012772894 -0.023509493
0.013185524 0.024060087 -0.064758345 -0.018078603 -0.06252282 -0.010412642 -0.053626575 -0.0670581
0.06038437 -0.05968245 0.0082364 -0.031031458 0.04997717 -0.040133163 0.034338053 0.0075408593
-0.0030294368 0.042658262 -0.068756096 -0.059425034 0.060360216 -0.037531033 -0.07348826 -0.040567342
-0.020006403 -0.04598387 -0.08293221 -0.0152218975 -0.05539687 -0.030262241 0.001817034 0.012008503
0.008304365 -0.027121736 -0.01973459 -0.049614966 -0.05713646 -0.07952106 -0.03309101 0.024137871
-0.010459781 0.012103294 0.0045429296 -0.0048823655 -0.033623382 -0.048724324 -0.023025207 0.010951866
-0.05263491 -0.0076310486 0.023774162 0.015097503 -0.021079872 -0.00053090235 0.035187546 0.028880492
-0.015427635 -0.04877853 -0.050118677 -0.04895124 -0.018111553 0.004589826 -0.043138463 0.025268033
0.04153438 -0.06228019 -0.096608825 -0.07032272 -0.036846295 -0.0017579643 -0.040315226 -0.0058785677
-0.0132461935 -0.068086 -0.008060925 -0.020963982 -0.037209917 -0.051087555 -0.039765757 0.0028785157
-0.0025433004 -0.05906454 -0.017221186 -0.027069908 -0.03464993 -0.05619187 -0.051163256 -0.06636982
0.051876247 -0.065488465 -0.025901139 0.005777441 0.007978813 -0.042716004 0.0051938933 -0.036434352
-0.01701117 -0.00014095753 -0.050841942 -0.02420593 0.013382288 0.011940114 0.043455917 0.041812062
-0.034088925 -0.06524079 -0.01937863 -0.052455544 -0.04698641 -0.051144555 0.023771383 0.05035686
0.0049485266 -0.046911534 -0.053892717 -0.03517195 -0.01896179 -0.0046124835 -0.026915705 0.019714205
00000000: 5aeb 83bd 9ceb bb3c c200 2dbc bc20 fdbc
00000010: e89f afbc 3cfc 70bd 4ba9 463c c364 4fbd
00000020: 8f35 35bd 5347 acbd 0735 c1b9 aeb2 3dbd
00000030: faf9 9fbc f722 5abd 49a6 29bd e028 363c
00000040: 6d69 183d 5e5f 14bd 2040 443b 00b1 42bd
00000050: 4813 f0bc 293f b73c 80c9 2b3a a452 bf3c
00000060: 0f0b 3cbd 50ac 90bd 5468 98bd 84e5 623d
00000070: 6fe6 adbd 915a 3d3b eb9d adbc 2771 093c
00000080: 63a8 59bb 34a4 58bd 4a67 1e3d 39db 6bbd
00000090: 8c24 b4bc c9f8 753c 9638 7d3c 5055 9dbc
000000a0: 5241 cebc 3c51 1cbd edb2 7c3b d386 20bd
000000b0: d15e 22bc 8ac5 b7bc 2eea 3c3d 609b 02bd
000000c0: 0b94 fdbc a3c2 073d ee94 103d f5ee 81bd
000000d0: 03a0 bbbd 824e bdbc fea0 063d f1c6 113c
000000e0: a095 353d b153 a4bd d79d e53a 6026 1fbd
000000f0: 3632 1b3d 8400 223c 9c28 a23c e1a0 323d
00000100: ea98 9dbd dcc0 5bbd 3425 76bd 90b9 203d
00000110: 7d8d 1fbc 52b2 62bd ae47 afbb 9b02 c53c
00000120: fa6f 7cbd 32b5 393d 4c51 e8bc 2665 cfbc
00000130: f6ec a53c 9fb0 523d dad9 39bc 4846 4a3d
00000140: c44b 713c ec4c e5bc 6082 bcbd f843 3f3c
00000150: a833 57bd a4a0 9d3c c9c3 0a3b 12ac 0abd
00000160: abe6 aabd baa9 43bd f9f3 813c 6ba8 b83c
00000170: 17cd 6f3a b667 68bd 3854 30bc 4a13 3bbd
00000180: 64aa 223c ab62 01bd d23e 213d 5572 633c
00000190: 5820 6abd 569e 783b 2760 48bc c485 0dbd
000001a0: 140a dd3c 60d2 f8bb 4e21 603d 6a5d 9ebd
000001b0: 214b c5bb 20d7 79bd cde7 85bd ebbd 91bb
000001c0: 9fa7 293d 12d7 063d a832 52bd 3dab f9bc
000001d0: ed92 98bd 9f9e 373b d7f6 a9bd e626 dabc
000001e0: f294 2f3d 42da c1bd 8213 74bd 8379 d7bc
000001f0: d85f 0c3c 82dc 44bd d48a 5f3d 7a25 26bd
00000200: 9c69 1bbd 2787 46bd e896 3ebc a604 dcbc
00000210: 5dc7 e03c 80fc 65bb 6745 51bc fb96 c0bc
00000220: 1908 583c a919 c53c 06a0 84bd 9419 94bc
00000230: f70b 80bd c999 2abc 8aa7 5bbd c255 89bd
00000240: 9a55 773d 9675 74bd f7f1 063c af35 febc
00000250: dcb4 4c3d ac62 24bd 0fa6 0c3d 5019 f73b
00000260: 8489 46bb 6eba 2e3d ffcf 8cbd aa67 73bd
00000270: 463c 773d 24ba 19bd 0381 96bd f129 26bd
00000280: 78e4 a3bc 9559 3cbd 5dd8 a9bd 4465 79bc
00000290: d4e7 62bd 85e8 f7bc 8b29 ee3a 50bf 443c
000002a0: 080f 083c 672e debc 6faa a1bc 1039 4bbd
000002b0: ec07 6abd f0db a2bd 708a 07bd c9bc c53c
000002c0: 805f 2bbc e54c 463c dbdc 943b 40fc 9fbb
000002d0: acb8 09bd 2893 47bd 5c9f bcbc 756f 333c
000002e0: b497 57bd e00d fabb 08c2 c23c 845b 773c
000002f0: b2af acbc 412c 0bba d120 103d c896 ec3c
00000300: 31c4 7cbc ffcb 47bd 3e49 4dbd 1881 48bd
00000310: ae5e 94bc 4066 963b f5b1 30bd e8fe ce3c
00000320: f41f 2a3d 8319 7fbd d9da c5bd 5c05 90bd
00000330: 24ec 16bd 7e6b e6ba 9421 25bd 00a1 c0bb
00000340: 9006 59bc ac70 8bbd f811 04bc a8bc abbc
00000350: 6d69 18bd 2f41 51bd 6be1 22bd 7ba5 3c3b
00000360: 80ad 26bb a9ed 71bd 7213 8dbc b6c1 ddbc
00000370: 16ed 0dbd 7229 66bd 9090 51bd e6ec 87bd
00000380: 307c 543d d11e 86bd a02e d4bc b050 bd3b
00000390: 91b9 023c faf6 2ebd 8931 aa3b 303c 15bd
000003a0: 025b 8bbc 00ce 13b9 a43f 50bd 844b c6bc
000003b0: 6241 5b3c 78a0 433c d5fe 313d 2043 2b3d
000003c0: d4a0 0bbd f79c 85bd efbf 9ebc a0db 56bd
000003d0: d274 40bd f47c 51bd 34bc c23c ff42 4e3d
000003e0: 4027 a23b 4f26 40bd 9cbe 5cbd 7610 10bd
000003f0: c155 9bbc 5124 97bb 537e dcbc af7f a13c

net.2.bias f4 [256]
-0.084714964 -0.03841986 -0.058740538 0.84902483 0.3731543 0.014493822 0.039792906 0.03799652
0.6043313 -0.060933225 -0.0028719993 2.073518 1.6124607 -0.008553646 -27.027431 -0.05164696
0.037259117 0.031207994 -0.38938707 1.1546701 -0.042496346 0.4276014 -0.03640727 -0.062057782
-0.020814598 2.492407 -0.0026908035 0.17473254 0.4316105 -0.081841365 1.6587728 0.37459487
-0.04356952 -0.021717617 -0.012066477 0.03258032 -0.4459126 -0.06803209 0.010313638 -1.9160558
-0.07720255 -0.00282958 -0.006685542 0.087548666 -0.05397559 0.40025514 -0.023973465 -0.044338536
40.225807 -0.38125804 -0.00037995854 -0.07157759 9.612319 -0.06201019 -0.047403835 -0.124891825
4.2138896 -0.032772962 -0.06780789 -0.04326968 0.0070818514 0.0007284318 3.0546212 6.619987
-0.028907357 -0.2644096 0.13182785 -0.087421045 -0.044808753 -6.0138383 0.005556985 -0.048664376
0.00084241724 0.5968989 -1.7356143 -0.084840015 -0.0025860444 -0.0038238964 1.280219 0.53770775
-1.106971 -0.65665495 -0.026906488 0.045780122 0.006277201 0.032095555 -0.08191568 0.010996086
1.2952826 1.014787 -0.061806943 0.03821774 0.013830206 0.76475585 -1.4136605 -0.05931039
-0.060253005 0.4041836 0.976794 0.74226016 21.549843 1.8873694 0.032197095 0.012895763
-0.07147408 0.031976327 -0.017091306 3.2198522 -0.8683106 -0.044227738 35.86907 0.39683408
-0.023782259 -0.055022202 0.6869512 0.17834124 -0.03865998 0.34174797 0.0037793575 -42.824005
-0.061062343 -25.395542 -25.4216 -0.05640712 0.39786145 0.0287235 -0.061413873 35.01008
0.4462413 0.012467611 -0.40847725 0.43795025 -0.058016784 -0.02804857 -0.0023737682 1.0877109
3.4173398 -0.006956033 1.53029 0.9620831 0.52026606 -39.88405 1.3763144 0.6032219
-0.022207074 -0.028760137 0.012387959 -0.053838365 2.1467197 1.596302 0.6876403 0.55261576
0.25438952 0.19279166 0.1072048 -0.017994842 0.3234687 0.21247935 -0.013361338 -0.033614524
1.3070275 -0.070503175 0.030756757 -0.023533128 -0.09238699 0.55430776 0.02220229 -0.024253024
2.7364368 19.220325 1.7097996 0.016538488 -0.024176333 0.6357452 0.04288074 0.023208538
-0.04241184 -0.06485326 0.029531725 -0.029393002 0.30783394 0.5357474 0.08739625 0.019148499
-0.0278169 -0.34429777 0.27999923 0.08094812 -0.022701725 0.005303867 0.04662995 -0.036159646
0.021357363 1.491048 -0.8169413 -0.044730265 -0.055330873 -0.034440637 1.4129765 -0.31992862
-0.06354271 -1.420648 0.8614023 0.09424282 -0.019584488 -0.96376973 0.013857426 -0.0137719875
0.42882198 -0.05383545 -0.050901793 0.3039843 -0.050705437 -0.07879363 2.9605443 -0.020767748
-0.012528848 1.879176 -0.060544264 0.012126631 0.87274814 -0.043667216 1.2837682 -0.057979867
-0.005016948 0.03359796 -0.31340906 0.9373862 -0.00050041825 0.42129377 0.25909618 1.2249722
-6.7744265 -0.019418413 -0.31878224 -0.05066651 -0.027340697 -0.026372578 0.24627967 -0.018537145
0.79003197 0.042180445 0.5532353 0.24535875 0.0021718955 -0.09080845 -0.012629013 -0.003178825
-0.02715298 0.97918874 0.02034393 1.4531257 0.90819347 -0.03470373 -26.604912 0.123610295
00000000: 0a7f adbd 255e 1dbd eb99 70bd b159 593f
00000010: 150e bf3e 7f77 6d3c e3fd 223d 3da2 1b3d
00000020: 75b5 1a3f 1e95 79bd 2738 3cbb 85b4 0440
00000030: 1d65 ce3f 9724 0cbc 2e38 d8c1 c38b 53bd
00000040: 049d 183d e8a7 ff3c be5d c7be 3bcc 933f
00000050: a610 2ebd 92ee da3e ca1f 15bd 4d30 7ebd
00000060: 6083 aabc 9983 1f40 3158 30bb 16ed 323e
00000070: 0dfc dc3e 729c a7bd ab52 d43f e6ca bf3e
00000080: f475 32bd 25e9 b1bc 79b2 45bc f172 053d
00000090: a84e e4be 6954 8bbd 88fa 283c 5141 f5bf
000000a0: 5f1c 9ebd 7a70 39bb 6412 dbbb b74c b33d
000000b0: 8215 5dbd 3eee cc3e 0064 c4bc 539c 35bd
000000c0: 3ae7 2042 4134 c3be 2c35 c7b9 4697 92bd
000000d0: 0fcc 1941 66fe 7dbd 862a 42bd 49c7 ffbd
000000e0: 2fd8 8640 f13c 06bd ddde 8abd 8c3b 31bd
000000f0: e00e e83b 3bf4 3e3a ea7e 4340 efd6 d340
00000100: 1fcf ecbc b260 87be e1fd 063e ce09 b3bd
00000110: 6289 37bd 5d71 c0c0 5e17 b63b 4c54 47bd
00000120: aad5 5c3a 5ece 183f 9c28 debf 9ac0 adbd
00000130: a07a 29bb 569a 7abb 37de a33f 37a7 093f
00000140: 3ab1 8dbf 8a1a 28bf ff6a dcbc f083 3b3d
00000150: fbb0 cd3b a176 033d 68c3 a7bd ed28 343c
00000160: d2cb a53f 8ae4 813f 4729 7dbd 348a 1c3d
00000170: 1798 623c 0ac7 433f d4f2 b4bf 74ef 72bd
00000180: dbcb 76bd 27f1 ce3e 2c0f 7a3f c304 3e3f
00000190: 1466 ac41 5295 f13f 1ae1 033d c048 533c
000001a0: 0161 92bd 9cf9 023d 1103 8cbc 0f12 4e40
000001b0: 9a49 5ebf 2528 35bd ed79 0f42 d62d cb3e
000001c0: 03d3 c2bc f65e 61bd 09dc 2f3f 169f 363e
000001d0: ed59 1ebd 97f9 ae3e 19af 773b c84b 2bc2
000001e0: 821c 7abd 122a cbc1 705f cbc1 270b 67bd
000001f0: 7fb4 cb3e 8c4d eb3c 1d8d 7bbd 520a 0c42
00000200: bd79 e43e f344 4c3c ee23 d1be 043b e03e
00000210: 02a3 6dbd 1dc6 e5bc 3991 1bbb 1c3a 8b3f
00000220: b2b5 5a40 6fef e3bb 8be0 c33f 144b 763f
00000230: 2830 053f 4489 1fc2 122b b03f c06c 1a3f
00000240: 9ceb b5bc 619a ebbc def6 4a3c 9e85 5cbd
00000250: db63 0940 a053 cc3f 3209 303f 3a78 0d3f
00000260: 583f 823e 2d6b 453e 318e db3d eb69 93bc
00000270: b09d a53e 3094 593e 83e9 5abc 62af 09bd
00000280: ad4c a73f f863 90bd 98f5 fb3c 8cc8 c0bc
00000290: 6435 bdbd 1de7 0d3f 94e1 b53c 47ae c6bc
000002a0: c821 2f40 3ac3 9941 b7da da3f b97b 873c
000002b0: 720d c6bc 33c0 223f b7a3 2f3d d51f be3c
000002c0: 0ab8 2dbd c9d1 84bd 84ec f13c 98c9 f0bc
000002d0: 699c 9d3e be26 093f cefc b23d 50dd 9c3c
000002e0: 44e0 e3bc cc47 b0be 0f5c 8f3e 21c8 a53d
000002f0: f8f8 b9bc 10cc ad3b 0cff 3e3d 231c 14bd
00000300: a3f5 ae3c a9da be3f 1123 51bf 1537 37bd
00000310: a0a2 62bd a011 0dbd 6adc b43f afcd a3be
00000320: ae22 82bd cbd7 b5bf dc84 5c3f 6102 c13d
00000330: a66f a0bc 9db9 76bf 420a 633c e7a3 61bc
00000340: 8e8e db3e 9082 5cbd 667e 50bd d5a3 9b3e
00000350: 81b0 4fbd 8e5e a1bd 8f79 3d40 2021 aabc
00000360: cc45 4dbc d788 f03f 43fd 77bd c7ae 463c
00000370: 6c6c 5f3f 65dc 32bd 8452 a43f 4c7c 6dbd
00000380: 3665 a4bb 049e 093d 2777 a0be 8bf8 6f3f
00000390: 802e 03ba d1b3 d73e 41a8 843e e4cb 9c3f
000003a0: 1ac8 d8c0 5d13 9fbc 6d37 a3be b087 4fbd
000003b0: 99f9 dfbc 4e0b d8bc bd30 7c3e 36db 97bc
000003c0: 893f 4a3f 67c5 2c3d d4a0 0d3f 533f 7b3e
000003d0: 5c56 0e3b c8f9 b9bd ebe9 4ebc d553 50bb
000003e0: ed6f debc 1dac 7a3f 50a8 a63c 0600 ba3f
000003f0: 5e7f 683f 8025 0ebd dcd6 d4c1 6527 fd3d

net.4.weight f4 [128, 256]
-0.06660315 0.03339082 -0.012020646 -0.61375684 0.03829892 -0.020848028 0.009071617 0.038287997
0.033265457 -0.064532176 -0.02193964 0.0014041465 -0.06866412 -0.06212097 -0.10396356 -0.017462274
0.007322043 -0.044361003 -0.019292168 0.008196139 0.07611315 -0.07841235 0.06285059 -0.067682356
0.009940021 -0.0037786057 -0.069900125 -0.031005817 -0.022587217 -0.066076845 0.02947697 0.0082877455
-0.020468008 0.0008155837 -0.03353738 -0.02378003 -0.043841265 0.055850163 0.04201504 -0.0070290337
-0.017168064 -0.06149272 0.011581441 0.003016787 -0.0389217 0.035806764 -0.04312448 0.04799837
0.46802503 -0.03578568 0.049383223 0.044556543 -0.35044846 0.05610396 -0.060651485 0.0297819
-2.151668 -0.0056764963 -0.083353795 -0.0047545135 -0.009730592 0.010231134 0.08543664 -1.5726601
0.05088039 -0.00015319727 -0.023206687 -0.14617369 -0.041953452 0.045379248 0.02412614 0.042501688
-0.035166826 0.030335063 0.02269306 -0.026802853 -0.058764026 0.032986265 0.033039626 0.0967133
-0.052657668 -0.056776896 -0.056732368 0.014860071 0.0044837445 -0.034918066 0.025135336 0.048029147
0.019744044 -0.054046005 -0.013238877 -0.047376454 0.056483153 0.035043284 -0.07256917 -0.039774977
0.047636896 -0.055806097 0.020765811 -0.030743338 -0.3212696 0.06201055 0.058771625 0.024636634
-0.038211346 -0.035247035 0.045565587 -0.112182334 -0.049758334 -0.022200448 0.2674282 -0.029438643
0.04575797 -0.012181626 0.0118644135 0.06060393 0.0009893052 0.040429186 -0.022717888 -0.1925215
-0.0051083216 0.07339762 0.050920635 0.024400953 -0.020929657 0.05479511 -0.0019599479 0.16681497
0.11249903 0.015669324 -0.07163524 -0.055791713 0.016274003 -0.044058524 0.0515366 -0.059709188
0.2389457 -0.046761427 0.19762185 0.04811097 0.024238762 -0.30159634 0.0067459587 0.039055083
0.05892703 0.034876913 0.08809726 -0.018730184 0.04368708 -0.054783944 0.03982162 -0.08448646
0.03445038 0.056268893 0.015059908 0.03244924 0.088710636 0.06279766 -0.0010602616 -0.018439896
0.03760239 -0.03714572 -0.016377293 0.059676208 -0.04886081 0.026012486 0.043711253 -0.0034604855
0.04629033 -0.10571782 -0.057105683 -0.04573319 0.05623446 -0.025103511 0.061149262 -0.019498058
-0.3119926 0.011888724 -0.062368892 0.030196304 0.8145011 -0.00038263973 0.06259432 0.017908359
-0.005651291 0.012538905 -0.034392443 -0.28762427 0.019868374 0.008623667 -0.066361316 -0.007261584
-0.008780137 -0.041455556 -0.010272208 0.05818433 0.044504356 -0.0010376424 -0.025208987 -0.46134815
-0.0014274075 -0.0066842926 0.0042459816 0.029285936 0.054807648 -0.0028183267 0.0235789 -0.0069983224
0.030856036 0.029208424 0.076434635 0.022612793 -0.05124836 -0.0061066705 0.12364263 0.014376487
-0.025595026 0.0044705 -0.018983167 0.00085177016 0.034523625 0.053302996 -0.05177695 -0.05910091
0.056085907 -0.04903374 0.036471657 -0.02998741 0.059256695 -0.00882285 -0.031587716 -0.021316689
0.116002075 0.00810267 0.02215401 -0.043846235 -0.017810263 0.008705666 0.055614125 -0.003529037
-0.082305126 0.025948495 0.012846734 0.018960161 -0.06353058 -0.07916784 0.0016868487 -0.024214413
0.035796754 0.018557196 -0.04474107 0.012361726 -0.0039657336 0.00937257 -0.24635263 -0.014786096
00000000: 3b67 88bd d0c4 083d 3ef2 44bc 2b1f 1dbf
00000010: 54df 1c3d 7cc9 aabc 1fa1 143c e0d3 1c3d
00000020: 5c41 083d 7229 84bd c3ba b3bc 570b b83a
00000030: c69f 8cbd 8f72 7ebd d9ea d4bd 0b0d 8fbc
00000040: c0ed ef3b e2b3 35bd 9c0a 9ebc 1949 063c
00000050: 36e1 9b3d a796 a0bd cfb7 803d 0c9d 8abd
00000060: 78db 223c 7ca2 77bb cc27 8fbd e9ff fdbc
00000070: d408 b9bc 4c53 87bd b079 f13c 53c9 073c
00000080: 86ac a7bc e5cc 553a 7e5e 09bd 56ce c2bc
00000090: e692 33bd 24c3 643d f617 2c3d cf53 e6bb
000000a0: 0aa4 8cbc cadf 7bbd 16c0 3d3c 4ab5 453b
000000b0: 5c6c 1fbd 1daa 123d 4ba3 30bd f099 443d
000000c0: faa0 ef3e 0194 12bd 1046 4a3d ec80 363d
000000d0: fb6d b3be 44cd 653d b16d 78bd 2cf9 f33c
000000e0: eeb4 09c0 e701 babb 65b5 aabd c0cb 9bbb
000000f0: 106d 1fbc 7ca0 273c 68f9 ae3d ed4c c9bf
00000100: f567 503d 94a3 20b9 f31b bebc 8eae 15be
00000110: 62d7 2bbd 97df 393d 2fa4 c53c 4016 2e3d
00000120: 170b 10bd 3d81 f83c cce6 b93c a891 dbbc
00000130: 8cb2 70bd 9b1c 073d 8f54 073d 9f11 c63d
00000140: 91af 57bd e48e 68bd 3360 68bd a877 733c
00000150: 60ec 923b 3f06 0fbd 9fe8 cd3c 36ba 443d
00000160: 43be a13c 585f 5dbd e0e7 58bc d00d 42bd
00000170: e15a 673d 8c89 0f3d 259f 94bd 16eb 22bd
00000180: e81e 433d ef94 64bd 101d aa3c 74d9 fbbc
00000190: 737d a4be c6fe 7d3d 84ba 703d c4d2 c93c
000001a0: 8083 1cbd 325f 10bd fba2 3a3d dabf e5bd
000001b0: 65cf 4bbd b7dd b5bc 59ec 883e 4f29 f1bc
000001c0: b66c 3b3d 7195 47bc f562 423c d43b 783d
000001d0: 93ab 813a 1399 253d dd1a babc 5b24 45be
000001e0: b563 a7bb 7e51 963d 2892 503d 82e4 c73c
000001f0: ac74 abbc d670 603d 7872 00bb 8bd1 2a3e
00000200: e465 e63d f45c 803c 7fb5 92bd da85 64bd
00000210: 0f51 853c b676 34bd 0b18 533d 9f91 74bd
00000220: 2eae 743e e988 3fbd 625d 4a3e 0210 453d
00000230: 5e90 c63c d66a 9abe 340d dd3b 39f8 1f3d
00000240: 785d 713d 18db 0e3d 566c b43d 0b70 99bc
00000250: 39f1 323d 2165 60bd ff1b 233d 3d07 adbd
00000260: d71b 0d3d 367a 663d d5bd 763c 7fe9 043d
00000270: ecad b53d 0f9c 803d 7af8 8aba 440f 97bc
00000280: f704 1a3d 1c26 18bd ac29 86bc 0a6f 743d
00000290: 4622 48bd 2318 d53c 920a 333d 50c9 62bb
000002a0: ee9a 3d3d 9682 d8bd a6e7 69bd ba52 3bbd
000002b0: 1b56 663d e1a5 cdbc a677 7a3d 64ba 9fbc
000002c0: 7ebd 9fbe ecc8 423c 8676 7fbd 3d5e f73c
000002d0: 2583 503f 099d c8b9 7331 803d 8db4 923c
000002e0: 772e b9bb fb6f 4d3c 17df 0cbd 7d43 93be
000002f0: 00c3 a23c 484a 0d3c 71e8 87bd 95f2 edbb
00000300: 90da 0fbc 4dcd 29bd c34c 28bc b152 6e3d
00000310: 334a 363d 8001 88ba 1483 cebc d335 ecbe
00000320: d917 bbba e907 dbbb e021 8b3b 0fe9 ef3c
00000330: fc7d 603d adb3 38bb 8a28 c13c 2f52 e5bb
00000340: ccc5 fc3c 8146 ef3c c389 9c3d 773e b93c
00000350: cde9 51bd 771a c8bb 5938 fd3d 5b8b 6b3c
00000360: a9ac d1bc 467d 923b 9682 9bbc 5449 5f3a
00000370: a568 0d3d 3e54 5a3d 1114 54bd cc13 72bd
00000380: 56ba 653d 9ad7 48bd 4e63 153d 28a8 f5bc
00000390: 26b7 723d b78d 10bc 1f62 01bd 56a0 aebc
000003a0: 7f92 ed3d 10c1 043c 547c b53c 1c98 33bd
000003b0: d4e6 91bc 36a2 0e3c a3cb 633d 6b47 67bb
000003c0: 978f a8bd f091 d43c 1c7b 523c 5752 9b3c
000003d0: 521c 82bd c022 a2bd 4019 dd3a 4e5d c6bc
000003e0: 9e9f 123d 4305 983c 6a42 37bd d688 4a3c
000003f0: fcf2 81bb 688f 193c dd43 7cbe 6241 72bc

net.4.bias f4 [128]
42.1379 -31.742197 -0.19148183 32.453644 -0.14906605 16.846848 29.983688 -0.06609521
-0.10490001 45.308678 -0.07526814 -0.0029445095 -0.0104861045 -0.13108489 34.614975 -0.034248732
-1.5962878 -0.11869389 -0.09794106 0.018137723 -0.64151585 -0.06007695 33.84025 32.420452
-3.673674 8.049919 -48.421963 -0.06358364 40.612934 -42.87979 -0.115946 36.224976
-6.7852263 -22.96679 16.659315 -20.670525 -0.051809706 3.5956795 -0.026813416 -0.0662921
32.485428 -0.027587445 -0.10005081 26.628878 -0.0956075 44.81102 0.043099742 -0.054689355
28.380714 -0.08475776 32.468052 -0.08879087 -0.08941259 -0.028787615 -0.10987775 -0.085943244
-0.09577794 28.753983 -27.417677 -0.08400154 -0.033437774 -27.87702 -0.03641226 15.747508
0.3557153 38.733044 -0.024955384 -0.06808882 0.32026005 -7.137289 22.772522 54.425198
38.27963 40.618187 -0.040635664 36.377026 18.779097 -0.13289449 -0.085952334 -0.012788978
-0.09790848 -0.10361186 -0.091851436 -0.11216562 31.639332 0.017865285 -0.10845199 -3.2165928
-39.244804 -0.06754156 -0.08653891 -33.223824 45.69674 19.994526 11.379404 25.30595
34.47635 15.741303 -41.090866 -11.680762 -0.106332004 -0.05111429 -0.060068674 -0.11060176
-56.478878 -0.113051265 40.474934 31.236538 -18.894611 -0.04392504 -41.840363 -9.125223
-11.222884 4.5891557 0.15640835 -0.004804837 -2.0338264 -0.103078805 -0.039379265 -0.011942482
-11.568212 -10.324263 -30.930847 -43.316555 29.76316 -0.13040633 10.946885 -11.248231
00000000: 368d 2842 05f0 fdc1 d013 44be 88d0 0142
00000010: c5a4 18be 58c6 8641 98de ef41 ed5c 87bd
00000020: d1d5 d6bd 163c 3542 2f26 9abd acf8 40bb
00000030: e9cd 2bbc 1e3b 06be bc75 0a42 6648 0cbd
00000040: 2953 ccbf c815 f3bd 5395 c8bd 9095 943c
00000050: 623a 24bf 3f13 76bd 6a5c 0742 8bae 0142
00000060: 7a1d 6bc0 78cc 0041 17b0 41c2 2438 82bd
00000070: a573 2242 e884 2bc2 1975 edbd 60e6 1042
00000080: 9320 d9c0 fcbb b7c1 4746 8541 3c5d a5c1
00000090: 6a36 54bd 9d1f 6640 cfa7 dbbc 27c4 87bd
000000a0: 14f1 0142 11ff e1bc 70e7 ccbd f107 d541
000000b0: ddcd c3bd 7c3e 3342 5b89 303d f201 60bd
000000c0: b40b e341 7a95 adbd 49df 0142 fdd7 b5bd
000000d0: f31d b7bd 01d4 ebbc 9607 e1bd 0303 b0bd
000000e0: 3927 c4bd 2808 e641 6757 dbc1 0009 acbd
000000f0: 0cf6 08bd 2304 dfc1 0625 15bd cbf5 7b41
00000100: 5120 b63e a3ee 1a42 3c6f ccbc 2772 8bbd
00000110: 20f9 a33e ac64 e4c0 202e b641 67b3 5942
00000120: 571e 1942 0679 2242 9571 26bd 1382 1142
00000130: 973b 9641 7e15 08be c707 b0bd dd88 51bc
00000140: 3e84 c8bd 7432 d4bd 9b1c bcbd 17b7 e5bd
00000150: 5a1d fd41 385a 923c 141c debd a8dc 4dc0
00000160: aefa 1cc2 3b53 8abd 503b b1bd 32e5 04c2
00000170: 76c9 3642 caf4 9f41 0a12 3641 9672 ca41
00000180: c8e7 0942 61dc 7b41 0c5d 24c2 67e4 3ac1
00000190: 98c4 d9bd 385d 51bd 920a 76bd 2d83 e2bd
000001a0: 5fea 61c2 6c87 e7bd 55e6 2142 6ee4 f941
000001b0: 2a28 97c1 beea 33bd 885c 27c2 ea00 12c1
000001c0: ef90 33c1 5dda 9240 8329 203e e571 9dbb
000001d0: 362a 02c0 fb1a d3bd 274c 21bd 66aa 43bc
000001e0: 6517 39c1 2e30 25c1 6072 f7c1 2744 2dc2
000001f0: f41a ee41 3d89 05be 7126 2f41 c1f8 33c1

net.6.weight f4 [256, 128]
0.090663925 0.103675395 0.09589258 0.08113952 0.023794387 0.119051725 0.14208753 0.054859903
0.031981252 0.045853134 -0.033110812 -0.08616937 -0.030166015 -0.02913926 0.173753 0.080907546
-1.7163795 -0.07549859 -0.10697902 0.08504869 -0.057480283 -0.024511771 0.19592091 0.27316612
-0.68124515 -0.539685 0.0779068 0.045457978 0.23212346 0.13579316 0.41237447 0.31560403
-0.17182681 0.49267316 -0.36342618 0.062204547 0.043393463 -0.07615251 -0.0320824 -0.022181962
0.17451698 0.004860081 -0.0008272913 0.18736471 0.8347814 -0.5109282 -0.022958392 -0.050657608
0.064532146 0.029589318 0.15129636 -0.008323209 -0.09103371 0.037859987 0.028234247 -0.07145927
-0.015718682 0.22389702 -0.068738356 0.042401977 0.2018015 0.049234148 0.01398685 0.0916081
-0.014207908 0.12113713 -0.0005600954 -0.05984019 -0.00864133 0.02430026 0.04036022 -0.084091686
0.40683272 0.018320752 0.09066176 0.0727071 0.07588722 0.05705402 0.0018127414 0.0023018704
0.014769734 0.020388294 -0.031625997 -0.012760153 0.18089052 -0.029329663 0.010656851 -0.03280199
-0.11251083 0.052701652 0.02045248 0.20692162 0.29521617 0.07928859 -0.10704147 0.048094157
-0.011841343 0.14315848 -0.06471411 -0.42837617 0.07376893 0.06449737 -0.076057866 -0.05480971
-0.17676477 -0.10748016 -0.048420027 0.42655239 -0.09684961 -0.026040373 -0.021672433 -0.15622887
0.16785866 0.14099556 0.030741464 0.035806853 0.22546892 0.10566181 -0.09209615 0.027445573
-0.102384865 0.105239704 -0.14814256 -0.15056469 0.16177961 -0.06528008 0.4302638 -0.9043376
0.6237161 -1.2490131 -0.062265012 -0.7211283 -0.021984959 0.12306551 0.34107843 -0.010750912
0.010390469 0.2909505 0.021898296 -0.037345316 -0.057814576 -0.10090471 0.7401952 0.083753
0.5476047 0.059757594 0.052234057 -0.06607673 0.048817784 -0.07955543 0.07344833 -0.40720937
-0.50374895 -1.3879793 -0.19595997 0.09351184 0.36929414 0.03385382 -0.21639836 0.28257674
0.32413355 0.5289316 -5.6119795 -2.2796676 0.06399697 -1.6644758 0.042237386 0.005853508
0.3505434 -0.0369115 0.051358286 -0.22698914 -0.055878434 0.124492064 0.022229573 0.0118289655
-0.9704557 0.041386593 0.34942314 -0.07125326 -0.014842818 0.0059832805 -0.09325691 -0.08852875
0.0077560153 -0.08628191 -0.24621533 -0.033755444 0.7795699 0.4859851 0.06522003 -1.4548256
-0.06834321 0.69700897 -0.061739307 -0.042424776 0.044635095 -0.21936262 0.1869405 0.31889296
-0.99365044 0.1359649 -0.053473603 0.35939574 -8.2757 0.031235263 -0.013018153 -0.015141095
0.027410647 -0.063623175 0.06952337 -0.008761629 -1.5342175 0.022900723 0.11427822 0.108577974
-0.1272244 0.071632825 -0.040929258 0.15493354 0.32304692 0.06615096 -2.0088074 0.0714196
0.23008233 0.14396885 -0.11386931 0.06319791 -0.06675352 -0.03992429 -0.08055208 0.06283774
-0.057419404 -0.09422225 0.50361645 -1.2959176 -0.3732914 0.038391463 0.11781352 -1.0102584
-0.54713124 -0.13764147 0.022815704 0.04637611 1.1370165 -0.018280977 0.026431704 -0.016830951
0.08309057 0.15499969 -1.618681 0.61981 0.084145315 -0.09753781 0.011390418 0.027185874
00000000: 02ae b93d c453 d43d 5463 c43d 7a2c a63d
00000010: 72ec c23c 64d1 f33d 657f 113e c7b4 603d
00000020: c6fe 023d 7fd0 3b3d 349f 07bd 9179 b0bd
00000030: b81e f7bc 75b5 eebc 4eec 313e dbb2 a53d
00000040: 53b2 dbbf 019f 9abd d117 dbbd 022e ae3d
00000050: 7270 6bbd e9cc c8bc 7e9f 483e 6edc 8b3e
00000060: 1566 2ebf cc28 0abf 9a8d 9f3d 2532 3a3d
00000070: c6b1 6d3e 5d0d 0b3e bf22 d33e da96 a13e
00000080: 5ef3 2fbe a83f fc3e ff12 babe 32ca 7e3d
00000090: 58bd 313d d9f5 9bbd d668 03bd f2b6 b5bc
000000a0: 94b4 323e 5041 9f3b 94de 58ba 89dc 3f3e
000000b0: 3cb4 553f 31cc 02bf 3d13 bcbc 5a7e 4fbd
000000c0: 6e29 843d 4c65 f23c 6fed 1a3e 125e 08bc
000000d0: e26f babd 1313 1b3d 824b e73c 3d59 92bd
000000e0: 77c4 80bc 4345 653e b2c6 8cbd b2ad 2d3d
000000f0: 0da5 4e3e bfa9 493d 1a29 653c 079d bb3d
00000100: 49c8 68bc be16 f83d 5ed3 12ba fd1a 75bd
00000110: 5d94 0dbc 5711 c73c c250 253d 4338 acbd
00000120: 614c d03e 6715 963c dfac b93d 76e7 943d
00000130: c26a 9b3d 7ab1 693d 8299 ed3a fada 163b
00000140: c1fc 713c 5a05 a73c 438a 01bd f60f 51bc
00000150: 5d3b 393e c344 f0bc 139a 2e3c 615b 06bd
00000160: 146c e6bd b0dd 573d f68b a73c 43e3 533e
00000170: 9326 973e 0e62 a23d 8f38 dbbd 61fe 443d
00000180: 3102 42bc 2398 123e d588 84bd 1f54 dbbe
00000190: 2a14 973d 3217 843d 3ac4 9bbd 2580 60bd
000001a0: d301 35be 8f1e dcbd 1454 46bd 1365 da3e
000001b0: 1759 c6bd 9f52 d5bc 638a b1bc 76fa 1fbe
000001c0: 24e3 2b3e 2461 103e 86d5 fb3c 35aa 123d
000001d0: 53e1 663e 3865 d83d e89c bcbd 8ad5 e03c
000001e0: 28af d1bd ea87 d73d afb2 17be a12d 1abe
000001f0: 8ea9 253e 90b1 85bd 894b dc3e ab82 67bf
00000200: dcab 1f3f a9df 9fbf 9909 7fbd dd9b 38bf
00000210: cd19 b4bc c509 fc3d d5a1 ae3e 9824 30bc
00000220: c93c 2a3c 77f7 943e 0e64 b33c 67f7 18bd
00000230: face 6cbd 21a7 cebd 6f7d 3d3f b186 ab3d
00000240: d22f 0c3f 61c4 743d 61f3 553d 3d53 87bd
00000250: 28f5 473d f5ed a2bd 146c 963d bf7d d0be
00000260: b1f5 00bf 4ea9 b1bf bba9 48be 2383 bf3d
00000270: 1f14 bd3e 4eaa 0a3d 8897 5dbe e6ad 903e
00000280: d5f4 a53e 1068 073f 5695 b3c0 13e6 11c0
00000290: d810 833d 8b0d d5bf 1c01 2d3d c9ce bf3b
000002a0: 6d7a b33e 8330 17bd 115d 523d d76f 68be
000002b0: c9e0 64bd b2f5 fe3d cb1a b63c 47ce 413c
000002c0: c96f 78bf fd84 293d 97e7 b23e 3bed 91bd
000002d0: 4a2f 73bc 650f c43b 7bfd bebd 904e b5bd
000002e0: 2c26 fe3b 92b4 b0bd df1f 7cbe 2643 0abd
000002f0: e591 473f 0ad3 f83e 1492 853d ba37 babf
00000300: 86f7 8bbd 2e6f 323f 5be2 7cbd 9ac5 2dbd
00000310: 4ad3 363d 98a0 60be 556d 3f3e f045 a33e
00000320: e05f 7ebf 623a 0b3e 2307 5bbd b802 b83e
00000330: 4469 04c1 18e1 ff3c 174a 55bc 5b12 78bc
00000340: 4b8c e03c de4c 82bd 4562 8e3d f08c 0fbc
00000350: 3d61 c4bf 4c9a bb3c b30a ea3d 215e de3d
00000360: 1d47 02be 3bb4 923d 70a5 27bd e6a6 1e3e
00000370: 6866 a53e 287a 873d 4d90 00c0 7044 923d
00000380: b49a 6b3e 926c 133e 5034 e9bd e86d 813d
00000390: 12b6 88bd a787 23bd 7df8 a4bd 13b1 803d
000003a0: 9c30 6bbd 98f7 c0bd 02ed 003f a1e0 a5bf
000003b0: 0d20 bfbe 5e40 1d3d 3748 f13d 2650 81bf
000003c0: cb10 0cbf e3f1 0cbe 00e8 ba3c e0f4 3d3d
000003d0: c289 913f fdc1 95bc 4d87 d83c 10e1 89bc
000003e0: 642b aa3d 3db8 1e3e f030 cfbf deab 1e3f
000003f0: 6154 ac3d e7c1 c7bd e09e 3a3c e9b4 de3c

net.6.bias f4 [256]
37.998066 10.785489 4.865268 -17.121527 -0.05438826 16.85528 45.57509 0.045430645
-0.43859455 -0.032550734 40.425304 -5.7685027 -0.033404727 -6.0090117 28.434507 20.704365
-0.3669059 -0.11873026 1.5583612 7.0790343 -0.113515854 -1.3973944 36.218254 39.366383
17.758886 -0.034034587 -0.09756138 32.93293 30.699297 2.0172741 -81.85095 38.399704
33.18901 -0.112389565 37.12417 -0.076615356 29.763792 4.3973618 -56.11665 22.470354
-0.09390377 34.700287 37.058273 34.875668 36.155766 -0.047559112 43.725807 -0.09243031
40.020535 -0.087162286 46.13662 0.027103601 -3.653066 10.918153 -0.29929632 -0.41665
33.72728 -7.3994317 4.5995703 -0.17398097 0.40859306 -0.48394293 -60.94454 0.11063216
6.886055 38.375385 -0.1396014 34.36226 -0.036537547 0.06532527 -0.036117934 25.365437
36.725727 -0.17561395 -40.09946 -40.609722 0.027562367 37.809574 39.09668 -27.447716
-0.39190823 -0.16591045 56.13413 40.106186 -0.09148324 -0.019485667 38.458324 42.13352
43.377457 -0.16219735 2.1369054 64.215546 -12.898387 32.45192 -0.13850878 26.073294
45.241077 37.78087 39.68509 41.266228 35.240982 47.861942 35.565292 -0.09084889
50.59319 -0.06498004 0.16627534 40.848843 0.12166546 1.8720884 0.051742215 24.090788
0.29960877 14.229057 21.891113 -0.06265834 0.00952664 -8.263318 2.0465634 41.06642
51.71874 2.605876 25.25005 -1.9937686 23.142292 -0.11587219 12.876962 -0.038722757
-0.04776509 25.819143 0.03567478 -0.027524618 35.230637 39.53042 -0.13198094 -1.48378
-26.788557 -0.10028423 12.248449 -5.0866427 0.049781192 -0.34261832 37.71211 -0.05165958
-0.0035875225 36.437843 20.536226 -0.4654851 17.55147 33.35566 -0.079264335 -1.4219652
-0.11548898 0.1334913 3.630375 0.0040374217 0.17724307 0.0057121194 7.4607425 -2.840207
9.562593 -0.036986757 -0.111635044 0.17680472 -0.0728407 -0.019607583 -0.32246307 30.598291
0.042842563 -0.14607713 -1.0929279 -0.058912344 17.646475 -0.14862727 43.51167 -0.5451253
22.849165 -0.014975686 0.049936034 5.625445 33.93637 -0.0928003 -9.675719 -3.4712307
-0.0034303633 41.083736 -28.264292 17.476185 -0.13906363 0.003755485 36.26099 12.997308
41.660034 35.823303 3.2733932 -0.09824136 -0.027200226 34.156834 36.210136 -41.90187
-0.10363609 33.244846 0.026071966 20.39696 7.8406625 -0.65359354 -14.685543 -5.4798193
-12.425423 41.591953 0.7633304 -0.01489529 36.50238 -31.453293 35.065403 -1.8359169
-0.9201239 31.65176 0.045915045 39.86237 -3.3424823 36.925926 38.529545 42.399628
-4.560068 -0.022024298 -35.667217 39.751625 32.322613 -0.108515546 33.335556 -0.1755311
-2.552708 10.551519 0.006682542 -16.957628 -0.05217486 -0.12021919 32.94597 -2.2443984
21.448898 38.200718 34.048855 0.05720324 -0.07504674 29.12772 -0.07347215 5.8404346
-0.12442147 -11.010768 -2.8612833 31.443462 -0.035579357 -0.10438455 36.96079 -27.836725
00000000: 05fe 1742 5d91 2c41 47b0 9b40 e3f8 88c1
00000010: 39c6 5ebd 9dd7 8641 e44c 3642 7c15 3a3d
00000020: 778f e0be eb53 05bd 83b3 2142 9397 b8c0
00000030: 65d3 08bd d349 c0c0 df79 e341 8aa2 a541
00000040: 17db bbbe da28 f3bd 6178 c73f 7387 e240
00000050: 007b e8bd d2dd b2bf 7edf 1042 2d77 1d42
00000060: 3312 8e41 da67 0bbd 43ce c7bd 52bb 0342
00000070: 2998 f541 051b 0140 b0b3 a3c2 4c99 1942
00000080: 8cc1 0442 802c e6bd 267f 1442 83e8 9cbd
00000090: 3f1c ee41 30b7 8c40 7377 60c2 49c3 b341
000000a0: 9f50 c0bd 18cd 0a42 ac3b 1442 af80 0b42
000000b0: 819f 1042 58cd 42bd 3ae7 2e42 1a4c bdbd
000000c0: 0715 2042 2482 b2bd e68b 3842 5f08 de3c
000000d0: d5cb 69c0 c1b0 2e41 5e3d 99be 2653 d5be
000000e0: bce8 0642 25c8 ecc0 ae2f 9340 1128 32be
000000f0: 1c33 d13e 5ec7 f7be 35c7 73c2 1d93 e23d
00000100: 905a dc40 6580 1942 abf3 0ebe f472 0942
00000110: 65a8 15bd 41c9 853d 66f0 13bd 6aec ca41
00000120: 25e7 1242 25d4 33be d965 20c2 5b70 22c2
00000130: 79ca e13c 013d 1742 0063 1c42 ec94 dbc1
00000140: 32a8 c8be 6ee4 29be 5989 6042 bc6c 2042
00000150: 915b bbbd 68a0 9fbc 53d5 1942 b988 2842
00000160: 8482 2d42 1017 26be 0fc3 0840 5c6e 8042
00000170: cb5f 4ec1 c4ce 0142 3fd5 0dbe 1b96 d041
00000180: ddf6 3442 9c1f 1742 88bd 1e42 9e10 2542
00000190: c4f6 0c42 a172 3f42 dc42 0e42 fc0e babd
000001a0: 6d5f 4a42 4114 85bd 1544 2a3e 3765 2342
000001b0: be2b f93d 98a0 ef3f a5ef 533d efb9 c041
000001c0: 5266 993e 38aa 6341 0021 af41 0453 80bd
000001d0: a015 1c3c 8d36 04c1 e5fa 0240 0444 2442
000001e0: fddf 4e42 acc6 2640 1a00 ca41 cf33 ffbf
000001f0: 6a23 b941 664e edbd 0908 4e41 c19b 1ebd
00000200: 54a5 43bd 9b8d ce41 b81f 123d 4f7b e1bc
00000210: 2cec 0c42 261f 1e42 0326 07be 81ec bdbf
00000220: f74e d6c1 d261 cdbd a6f9 4341 c7c5 a2c0
00000230: 5de7 4b3d ab6b afbe 33d9 1642 ff98 53bd
00000240: a41c 6bbb 5ac0 1142 314a a441 1054 eebe
00000250: 6969 8c41 326c 0542 5755 a2bd f502 b6bf
00000260: 7d85 ecbd f1b1 083e 1058 6840 594c 843b
00000270: 357f 353e bb2c bb3b 67be ee40 f4c5 35c0
00000280: 6200 1941 6d7f 17bd eaa0 e4bd 4c0c 353e
00000290: 812d 95bd 15a0 a0bc e119 a5be 4dc9 f441
000002a0: af7b 2f3d 3e95 15be 10e5 8bbf 124e 71bd
000002b0: fb2b 8d41 bf31 18be f30b 2e42 558d 0bbf
000002c0: 17cb b641 945c 75bc ba89 4c3d a503 b440
000002d0: d8be 0742 150e bebd bfcf 1ac1 a528 5ec0
000002e0: f2cf 60bb bf55 2442 451d e2c1 3acf 8b41
000002f0: b266 0ebe 951e 763b 410b 1142 f9f4 4f41
00000300: e0a3 2642 104b 0f42 467f 5140 c432 c9bd
00000310: 02d3 debc 99a0 0842 2ed7 1042 849b 27c2
00000320: 293f d4bd b9fa 0442 e094 d53c f92c a341
00000330: b5e6 fa40 e851 27bf fcf7 6ac1 ae5a afc0
00000340: 88ce 46c1 295e 2642 9f69 433f 600b 74bc
00000350: 7002 1242 58a0 fbc1 f942 0c42 53ff eabf
00000360: 3d8d 6bbf ce36 fd41 6a11 3c3d 1173 1f42
00000370: 3beb 55c0 26b4 1342 411e 1a42 3899 2942
00000380: 14ec 91c0 4d6c b4bc 3bab 0ec2 aa01 1f42
00000390: 5b4a 0142 663d debd 9c57 0542 6dbe 33be
000003a0: 915f 23c0 06d3 2841 3af9 da3b 39a9 87c1
000003b0: 4eb5 55bd 7b35 f6bd acc8 0342 39a4 0fc0
000003c0: 5897 ab41 89cd 1842 0732 0842 f24d 6a3d
000003d0: 1bb2 99bd 9205 e941 9178 96bd d7e4 ba40
000003e0: afd0 febd 1b2c 30c1 441f 37c0 368c fb41
000003f0: a9bb 11bd 91c7 d5bd d9d7 1342 9db1 dec1
